chess_value_model.pth (torch, 606880 bytes, 19 tensors)

layer1.weight f4 [128, 901]
-0.02771448 -0.028942553 -0.0058406983 -0.040091973 0.0149615705 -0.020777874 -0.0013121222 -0.0124854725
0.0768743 0.044075854 0.04028858 0.08321439 -0.012251325 -0.023545468 -0.0306796 0.04599575
-0.07424277 0.025160365 -0.11615774 -0.024666933 0.0116974 0.054734506 0.043830752 0.02377074
-0.023806738 0.040517785 -0.039782707 -0.0044537205 -0.03074959 0.059956405 0.06854184 0.0037436911
-0.11394363 0.031644374 0.13874286 0.0577388 0.063825056 0.17469609 0.037795734 0.053690188
0.009715151 0.12511131 -0.092783324 0.015269639 -0.07127365 0.02690643 -0.030355694 0.024947999
0.007773529 0.06605779 0.02938002 0.11143516 -0.077485934 0.022418585 0.001324486 0.17934857
0.011128305 0.09898508 0.055774767 0.0033198819 0.010759626 -0.039893072 0.107293166 -0.022792708
-0.029093016 0.041265953 0.023684274 -0.1697378 0.011934152 -0.017366098 0.07009591 -0.005058702
0.018453047 0.085854754 0.048381124 0.14652652 -0.040969513 -0.018767353 -0.015850976 0.021181379
0.044153035 -0.002368493 0.010471341 0.28017578 -0.011257348 -0.00921566 0.019762509 0.01729648
0.030591423 -0.025615925 0.021278393 -0.067767724 0.019610345 -0.0052632466 0.013707906 0.01874502
-0.004589416 0.043754444 -0.0047664717 -0.03231073 -0.0099481605 0.044250574 0.040759224 -0.10394809
0.02554205 -0.05642831 0.0060542696 -0.04289426 0.018258173 0.07188401 0.15693417 0.1558322
0.041654605 -0.021710077 0.12203089 0.023961192 0.09331449 0.039831363 -0.015748998 -0.009924741
0.0099657485 0.08541594 -0.01004466 -0.024677102 0.10414855 0.059205346 0.024391977 -0.08164665
0.055158373 0.017060425 -0.014731652 0.040863063 -0.010559982 -0.0018536295 0.060348067 -0.0050512957
-0.016256852 0.040251885 0.12943754 0.118367866 0.03130837 -0.038827006 0.11703747 0.0042472337
-0.0015177692 0.00015480375 -0.017522972 -0.052345797 0.054748405 -0.07382129 0.026999705 -0.040855207
0.00084615516 0.10140037 0.029694837 -0.031656098 -0.009484191 0.09868438 -0.02501305 -0.15511666
0.07625689 -0.034894463 0.006963011 -0.069666274 -0.006720815 0.084308386 0.091132425 0.037544917
-0.015183544 0.009890954 -0.0058441577 -0.04853321 -0.012468134 0.009978272 -0.03573317 0.0013363747
-0.01391938 -0.03316647 -0.008880272 0.14308666 0.05812957 0.0042045936 0.011265411 -0.021893356
0.07917515 0.043283362 0.009908774 -0.089207664 -0.07329278 0.046495114 0.0054531284 0.106094375
0.12527822 0.12104047 -0.003060067 -0.017978156 0.10472462 -0.06837695 -0.012320539 0.032611694
-0.15122055 -0.12699157 0.011590207 0.031097561 0.0078891665 0.026900278 0.07536783 -0.047378633
-0.05398128 0.096991114 0.122378536 -0.1300964 0.014505298 0.018853907 0.13090868 0.005012536
-0.013669826 0.050548706 0.022288697 -0.057329047 -0.023794938 0.036507998 -0.08363039 0.101424016
0.033320453 0.050478004 -0.022785893 0.021690318 0.0101898145 0.054676197 0.053605143 -0.02081218
-0.06098804 -0.008486499 0.033025052 0.004325359 0.02968967 -0.13698038 0.16314292 0.016099876
0.011798266 0.19592015 0.085426666 -0.01592187 -0.013710611 0.025364745 0.0021378524 0.0057811607
0.0013263072 -0.009777351 -0.07624972 0.060749784 0.048472334 0.046510454 0.015656952 0.10679241
00000000: 7a09 e3bc ef18 edbc 5463 bfbb 7b37 24bd
00000010: 6021 753c 5c36 aabc 84fb abba de8f 4cbc
00000020: 4670 9d3d e288 343d a305 253d 4e6c aa3d
00000030: c8b9 48bc 6de2 c0bc c953 fbbc 0a66 3c3d
00000040: 980c 98bd 1c1d ce3c 1ce4 edbd 4f12 cabc
00000050: 74a6 3f3c 4a31 603d e087 333d dbba c23c
00000060: 5906 c3bc faf5 253d 31f3 22bd 84f0 91bb
00000070: 90e6 fbbc d994 753d aa5f 8c3d b758 753b
00000080: 475b e9bd 889d 013d 9c12 0e3e 857f 6c3d
00000090: b6b6 823d 88e3 323e b3cf 1a3d 3eea 5b3d
000000a0: 4c2c 1f3c 2e1d 003e 2f05 bebd 822d 7a3c
000000b0: ebf7 91bd e06a dc3c 81ac f8bc bf5f cc3c
000000c0: 16b9 fe3b 4e49 873d 5eae f03c 1e38 e43d
000000d0: f2b0 9ebd 2ea7 b73c 609a ad3a 27a7 373e
000000e0: 7f53 363c b1b8 ca3d 1574 643d 6092 593b
000000f0: 2449 303c eb66 23bd 85bc db3d c6b7 babc
00000100: 7a54 eebc 7d06 293d 8605 c23c bfcf 2dbe
00000110: 7687 433c 5943 8ebc 728e 8f3d 78c3 a5bb
00000120: d82a 973c 9ed4 af3d 492b 463d 0c0b 163e
00000130: a6cf 27bd febd 99bc e8d9 81bc 9284 ad3c
00000140: d0d9 343d b838 1bbb fd8f 2b3c 3373 8f3e
00000150: bd70 38bc 48fd 16bc fce4 a13c 59b1 8d3c
00000160: dd9a fa3c 7dd8 d1bc 0650 ae3c cec9 8abd
00000170: e0a5 a03c 5077 acbb 2097 603c 288f 993c
00000180: d062 96bb dc37 333d 1030 9cbb 4258 04bd
00000190: 9cfd 22bc 1740 353d 25f3 263d bce2 d4bd
000001a0: 903d d13c 5f21 67bd e562 c63b e4b1 2fbd
000001b0: 2a92 953c ed37 933d 5ab3 203e 7a92 1f3e
000001c0: 059e 2a3d 55d9 b1bc 55eb f93d 434a c43c
000001d0: ab1b bf3d 3626 233d 0b04 81bc 629b 22bc
000001e0: 6147 233c 8dee ae3d 5c92 24bc a227 cabc
000001f0: d64b d53d 4e81 723d afd1 c73c 5c36 a7bd
00000200: bfed 613d 4ec2 8b3c 075d 71bc 0760 273d
00000210: c603 2dbc 7cf5 f2ba 892f 773d 5785 a5bb
00000220: 172d 85bc 29df 243d 468b 043e da6a f23d
00000230: 353d 003d 1109 1fbd 57b1 ef3d 612c 8b3b
00000240: e2ef c6ba d152 2239 568c 8fbc 8c68 56bd
00000250: dd3f 603d 9e2f 97bd 7c2e dd3c ca57 27bd
00000260: 83d0 5d3a ffaa cf3d 9642 f33c d3a9 01bd
00000270: 9563 1bbc 091b ca3d 2be8 ccbc e7d6 1ebe
00000280: 932c 9c3d 7fed 0ebd f829 e43b 31ad 8ebd
00000290: 483a dcbb e0a9 ac3d a3a3 ba3d b3c8 193d
000002a0: 66c4 78bc ab0d 223c 5980 bfbb c2ca 46bd
000002b0: 2547 4cbc e87b 233c f25c 12bd 4b29 af3a
000002c0: 1c0e 64bc 90d9 07bd 8f7e 11bc 4f85 123e
000002d0: 4619 6e3d b0c6 893b 8f92 383c b259 b3bc
000002e0: 9526 a23d e549 313d 6958 223c 82b2 b6bd
000002f0: 861a 96bd a971 3e3d 28b0 b23b 0248 d93d
00000300: ef48 003e 11e4 f73d 688b 48bb ed46 93bc
00000310: dd79 d63d 3709 8cbd 16dc 49bc d793 053d
00000320: 8fd9 1abe 140a 02be dae4 3d3c 50c0 fe3c
00000330: 9041 013c f95d dc3c 735a 9a3d 1910 42bd
00000340: 7a1b 5dbd 47a3 c63d 99a1 fa3d fe37 05be
00000350: a1a7 6d3c 8273 9a3c ed0c 063e 3340 a43b
00000360: 68f7 5fbc 290c 4f3d c996 b63c ddd1 6abd
00000370: 9aed c2bc 6989 153d 6946 abbd 65b7 cf3d
00000380: 077b 083d 06c2 4e3d 7ba9 babc e5af b13c
00000390: 2ef3 263c 26f4 5f3d 1191 5b3d 4e7e aabc
000003a0: 98ce 79bd f50a 0bbc 4745 073d bebb 8d3b
000003b0: c037 f33c 9644 0cbe f00e 273e e3e3 833c
000003c0: 844d 413c 4b9f 483e 2df4 ae3d 956e 82bc
000003d0: 78a2 60bc bac9 cf3c 361b 0c3b e46f bd3b
000003e0: 7cd7 ad3a 2f31 20bc d028 9cbd c4d4 783d
000003f0: ed8a 463d bf81 3e3d 0243 803c fbb5 da3d

layer1.bias f4 [128]
0.011898737 -0.014239418 -0.047635004 0.03770603 -0.019444512 0.022896511 -0.021719243 -0.014854185
-0.022521913 0.027147373 0.03005838 0.035529464 -0.001149391 0.016751712 -0.053201728 0.02090651
-0.010052299 0.0014359793 -0.024078187 0.008996273 -0.021891678 -0.02839653 -0.022883683 -0.03914837
-0.00571484 -0.020583875 -0.03251237 -0.020814644 -0.062711455 -0.0265416 0.039874204 -0.024244532
-0.017459877 -0.017303133 -0.028991705 -0.0028778058 -0.015944269 -0.018271113 -0.03323094 0.021840904
0.0005033588 -0.005320317 0.013566519 0.009314931 0.014198068 -0.017830232 0.01537383 -0.028094148
0.0222537 -0.037534963 -0.01339851 -0.026284453 -0.026313704 -0.020074362 -0.024671556 0.023922708
0.010302206 -0.0072358213 -0.020283906 0.033940513 0.024131106 -0.023939969 0.021349518 0.01762678
-0.028551307 -0.0062809973 -0.0064637475 0.014003896 0.014420873 0.011724263 0.014428472 -0.027368799
0.02969609 0.0022337288 0.0005022494 0.029372396 -0.0038711983 0.050076418 0.020455413 -0.0486771
0.02677234 -0.012983231 -0.015660547 0.04808256 -0.04566233 0.0030721254 -0.012691304 0.018435424
0.0018804695 0.006301189 -0.0023433138 0.009191861 0.008971293 0.04784398 0.031625528 -0.019985693
0.019331757 -0.02252171 -0.00096803997 -0.0075502135 0.035411853 -0.007032288 0.020151589 -0.015621669
0.032182693 0.02311641 -0.01352619 0.0049211974 -0.00499687 0.037541363 0.038024873 -0.0077665453
-0.035016503 -0.021502038 -0.014969203 0.012277548 -0.010307536 -0.00420958 -0.0042633545 0.01739221
0.034463927 0.023671376 -0.037723485 -0.008084898 -0.0075003896 0.035431594 0.021749882 0.032508925
00000000: ecf2 423c 734c 69bc ec1c 43bd a371 1a3d
00000010: 194a 9fbc 7791 bb3c 8eec b1bc f85e 73bc
00000020: e07f b8bc 2b64 de3c fe3c f63c 5887 113d
00000030: 2aa7 96ba e33a 893c 0eea 59bd 2144 ab3c
00000040: 66b2 24bc 7837 bc3a 9e3f c5bc 1b65 133c
00000050: 2d56 b3bc d79f e8bc 9076 bbbc 0b5a 20bd
00000060: 8d43 bbbb 849f a8bc b12b 05bd 7983 aabc
00000070: dd6e 80bd c56d d9bc 2253 233d 789c c6bc
00000080: 0408 8fbc 4dbf 8dbc 0380 edbc 9299 3cbb
00000090: 8e9d 82bc 4dad 95bc 2b1d 08bd b2eb b23c
000000a0: d6f3 033a 0e56 aebb 1b46 5e3c a79d 183c
000000b0: 039f 683c b510 92bc 84e2 7b3c b325 e6bc
000000c0: 644d b63c 43be 19bd 6d85 5bbc 7e52 d7bc
000000d0: d68f d7bc fd72 a4bc 011c cabc 8ef9 c33c
000000e0: 95ca 283c 781a edbb 6f2a a6bc 3505 0b3d
000000f0: 99ae c53c c11d c4bc 2fe5 ae3c 0966 903c
00000100: 6ee4 e9bc d3d0 cdbb d8cd d3bb 9970 653c
00000110: 8645 6c3c 2017 403c 6665 6c3c 8834 e0bc
00000120: 3745 f33c c063 123b 63a9 033a 619e f03c
00000130: eeb3 7dbb ee1c 4d3d 1c92 a73c a461 47bd
00000140: ab51 db3c 9eb7 54bc 8c4a 80bc 38f2 443d
00000150: 6c08 3bbd b655 493b 30ef 4fbc e305 973c
00000160: 167a f63a 347a ce3b 4892 19bb 7699 163c
00000170: 55fc 123c 0df8 433d c589 013d 09b9 a3bc
00000180: a25d 9e3c 737f b8bc 10c4 7dba c867 f7bb
00000190: 050c 113d 1b6f e6bb f214 a53c 07f2 7fbc
000001a0: 00d2 033d a05e bd3c f49c 5dbc ff41 a13b
000001b0: c9bc a3bb f9c4 193d f8bf 1b3d 817e febb
000001c0: 776d 0fbd 0b25 b0bc 6341 75bc c527 493c
000001d0: f1e0 28bc 84f0 89bb 9cb3 8bbb 1c7a 8e3c
000001e0: 0c2a 0d3d 79ea c13c f183 1abd 8576 04bc
000001f0: d4c5 f5bb b820 113d cf2c b23c 1428 053d

bn1.weight f4 [128]
0.85931957 0.9920408 0.90960926 0.91500795 0.90042126 0.8311637 0.88263625 0.86666036
0.89190894 0.9249907 0.9623889 0.9101515 0.9729192 0.86395246 0.954837 0.744632
0.69048923 0.7066411 0.81778383 0.78273785 0.9464429 0.76686245 0.9029189 0.83976585
0.70343846 0.91755086 0.6437901 0.89706475 0.83190113 0.7332552 0.9604645 0.8043026
0.977916 0.8731493 0.92329973 0.6927861 0.9280254 0.9583791 0.9378071 0.7936143
0.8921645 0.8119582 0.6177128 0.9973617 0.7084199 0.83912754 0.9103183 0.7718206
0.9526572 0.84448034 0.9373128 0.96411914 0.8765489 0.8927847 0.72359794 0.73958874
0.9052058 0.9936744 0.9217771 0.9530637 0.89804566 0.88285905 0.9177858 0.8287353
0.98718226 0.89704496 0.9797316 0.9006406 0.9955631 0.9246117 0.82603914 0.929967
0.79159003 1.0131954 0.89204025 0.884297 0.9135426 0.94421005 0.900389 0.92695713
0.9515677 0.76583964 0.94407123 0.70256335 0.8935531 0.942572 0.65162915 0.748315
0.8763253 0.71141106 0.92882556 0.8366357 0.8702679 0.73493874 0.9014553 0.93577105
0.61933684 0.9359323 0.94441676 0.91491705 0.92668945 0.93078303 0.89027697 0.9354204
0.94294125 0.66548467 0.88773006 0.887475 0.8434795 0.8233175 0.87074953 0.9250049
0.82949275 0.7360191 0.71841586 0.62307173 0.95738775 0.76922435 0.96114284 0.9110268
0.8611288 0.9621625 0.8035395 0.8172848 0.732035 0.94367415 0.7872112 0.9398167
00000000: 5efc 5b3f 63f6 7d3f 27dc 683f f63d 6a3f
00000010: 0282 663f 25c7 543f 73f4 613f 74dd 5d3f
00000020: 2554 643f 31cc 6c3f 1e5f 763f b0ff 683f
00000030: 3c11 793f fd2b 5d3f 3370 743f 34a0 3e3f
00000040: e7c3 303f 6ee6 343f 485a 513f 8261 483f
00000050: 154a 723f 1951 443f b125 673f e5fa 563f
00000060: 8b14 343f 9de4 6a3f 6ecf 243f 09a6 653f
00000070: 79f7 543f 9db6 3b3f 00e1 753f c6e6 4d3f
00000080: b458 7a3f b686 5f3f 5f5d 6c3f 6e5a 313f
00000090: 1393 6d3f 5558 753f 2014 703f 4f2a 4b3f
000000a0: e564 643f 7edc 4f3f 6d22 1e3f 1953 7f3f
000000b0: 025b 353f 10d1 563f 9f0a 693f 0996 453f
000000c0: 58e1 733f dd2f 583f bbf3 6f3f 83d0 763f
000000d0: 8265 603f 8a8d 643f b73d 393f b055 3d3f
000000e0: 91bb 673f 7261 7e3f 96f9 6b3f fcfb 733f
000000f0: 52e6 653f 0d03 623f 03f4 6a3f ff27 543f
00000100: fab7 7c3f bda4 653f b1cf 7a3f 6290 663f
00000110: 39dd 7e3f 5ab3 6c3f 4d77 533f 5112 6e3f
00000120: a5a5 4a3f 63b0 813f c05c 643f 4a61 623f
00000130: eedd 693f c0b7 713f e57f 663f 104d 6d3f
00000140: f199 733f 110e 443f a7ae 713f 31db 333f
00000150: e5bf 643f 664c 713f 2bd1 263f 9291 3f3f
00000160: db56 603f 091f 363f 83c7 6d3f c22d 563f
00000170: e1c9 5e3f f224 3c3f c6c5 663f b18e 6f3f
00000180: dc8c 1e3f 4299 6f3f 4cc5 713f 0138 6a3f
00000190: 853b 6d3f cc47 6e3f 31e9 633f b677 6f3f
000001a0: 9964 713f 345d 2a3f 4742 633f 9031 633f
000001b0: 46ee 573f f0c4 523f 71e9 5e3f 1fcd 6c3f
000001c0: a359 543f bf6b 3c3f 1aea 373f a181 1f3f
000001d0: 5d17 753f e3eb 443f 750d 763f 0d39 693f
000001e0: f072 5c3f 4850 763f c4b4 4d3f 9439 513f
000001f0: a566 3b3f a194 713f ac86 493f d497 703f

bn1.bias f4 [128]
-0.5608462 -0.4801435 -0.5077849 -0.45380467 -0.57010615 -0.46576595 -0.46202323 -0.4982169
-0.42876735 -0.5230019 -0.48670885 -0.4733155 -0.48951867 -0.6051953 -0.44047838 -0.4114109
-0.3768031 -0.47099805 -0.45312583 -0.38676637 -0.5771266 -0.4140562 -0.474768 -0.56475693
-0.42068258 -0.5192449 -0.31512895 -0.526688 -0.4721603 -0.4784214 -0.48112836 -0.48781085
-0.52375007 -0.54688275 -0.50874496 -0.38867164 -0.5159614 -0.56075484 -0.36813605 -0.46554798
-0.5092585 -0.56766176 -0.46153963 -0.53686756 -0.48536354 -0.5299516 -0.5653515 -0.39503866
-0.46998978 -0.48397544 -0.5313454 -0.5047692 -0.5022091 -0.49560222 -0.3677986 -0.5472708
-0.5674094 -0.42598212 -0.5320476 -0.5135929 -0.59927994 -0.42036805 -0.5193021 -0.5899423
-0.44781312 -0.5593886 -0.49852115 -0.5778852 -0.4436483 -0.4832264 -0.47386992 -0.53467244
-0.50149447 -0.4376666 -0.48836273 -0.5036709 -0.5253026 -0.5503799 -0.4338956 -0.53931844
-0.4872104 -0.5171732 -0.46599513 -0.44093883 -0.56363076 -0.5400397 -0.47994125 -0.4219251
-0.5178625 -0.42802513 -0.6020984 -0.3687677 -0.49430475 -0.40201995 -0.5555977 -0.5458524
-0.46584824 -0.5461 -0.47627053 -0.502385 -0.48679805 -0.55453116 -0.5015743 -0.46112466
-0.5457234 -0.34939986 -0.5535647 -0.48292035 -0.524546 -0.51534665 -0.5100152 -0.5144743
-0.4911614 -0.39431548 -0.34901232 -0.42430568 -0.47341597 -0.434873 -0.49795347 -0.43779403
-0.43369877 -0.48651436 -0.39945897 -0.52067816 -0.4160787 -0.50459915 -0.51500815 -0.5498885
00000000: 9e93 0fbf 5ed5 f5be 31fe 01bf 1659 e8be
00000010: 7af2 11bf e078 eebe 4f8e ecbe 4916 ffbe
00000020: 6587 dbbe 74e3 05bf e731 f9be 6956 f2be
00000030: 31a2 fabe 14ee 1abf 6286 e1be 73a4 d2be
00000040: 56ec c0be a826 f1be 1c00 e8be 3e06 c6be
00000050: 92be 13bf 2dff d3be cb14 f3be e993 10bf
00000060: b563 d7be 3ced 04bf 9558 a1be 06d5 06bf
00000070: ffbe f1be a6f3 f4be 7556 f6be 58c2 f9be
00000080: 7c14 06bf 8200 0cbf 1c3d 02bf f8ff c6be
00000090: 0c16 04bf a18d 0fbf 547c bcbe 4e5c eebe
000000a0: c45e 02bf 4852 11bf ec4e ecbe 2770 09bf
000000b0: 9281 f8be e8aa 07bf e0ba 10bf 8242 cabe
000000c0: 80a2 f0be a1cb f7be 4106 08bf 8e38 01bf
000000d0: c790 00bf 93bf fdbe 1950 bcbe f019 0cbf
000000e0: be41 11bf 541a dabe 4634 08bf d37a 03bf
000000f0: 696a 19bf 7b3a d7be fcf0 04bf 7506 17bf
00000100: c347 e5be 1734 0fbf 2a3e ffbe 49f0 13bf
00000110: df25 e3be 7369 f7be 149f f2be 4be0 08bf
00000120: f161 00bf d615 e0be ae0a fabe 93f0 00bf
00000130: 3b7a 06bf b2e5 0cbf 9027 debe c610 0abf
00000140: a473 f9be 7665 04bf ea96 eebe bcc2 e1be
00000150: 1b4a 10bf 0b40 0abf dcba f5be 9106 d8be
00000160: a392 04bf 1c26 dbbe 1f23 1abf 1fcf bcbe
00000170: 8315 fdbe 8fd5 cdbe a73b 0ebf fcbc 0bbf
00000180: a983 eebe 36cd 0bbf bbd9 f3be 4e9c 00bf
00000190: 983d f9be c1f5 0dbf 2c67 00bf 8818 ecbe
000001a0: 87b4 0bbf 8ae4 b2be 6bb6 0dbf 5641 f7be
000001b0: a648 06bf c2ed 03bf 5b90 02bf 96b4 03bf
000001c0: 8279 fbbe b8e3 c9be beb1 b2be 983e d9be
000001d0: 9463 f2be ada7 debe c2f3 febe 8a26 e0be
000001e0: c40d debe 6918 f9be e385 ccbe 2a4b 05bf
000001f0: 4408 d5be 692d 01bf 93d7 03bf 7ec5 0cbf

bn1.running_mean f4 [128]
-0.08543895 -0.34917328 0.14684904 -0.051736012 -0.090183586 0.38460538 -0.30041826 -0.07640808
0.009614864 -0.056637604 0.050119415 0.06202496 0.2100217 -0.15692648 -0.22081663 0.41623023
0.21558529 -0.07147449 0.25137743 -0.14369088 0.21493618 0.35880044 -0.17739415 -0.25152075
0.20233725 0.0021115048 -0.21242468 0.24917954 0.112484 0.294006 0.32300794 0.09026741
-0.058453303 -0.0042668385 -0.11213364 -0.043606706 0.21227269 0.24037424 0.07172067 -0.31985113
0.20157763 0.16203408 0.16977009 -0.36257017 0.16377646 -0.039900567 -0.2807243 -0.077011354
0.29641524 0.25348616 -0.3218858 0.098261416 0.22330193 -0.12653854 -0.36191055 0.23453522
0.019280713 -0.032293603 -0.060119778 0.09550106 0.40856358 0.17510307 0.3348318 0.1868215
-0.100502804 -0.2734145 -0.2238787 -0.13286987 -0.19522233 0.14864516 0.3525667 0.0036495477
-0.14558744 -0.34363505 0.30925828 0.31831595 0.26148933 0.0037476209 0.21480578 -0.026206775
0.42554292 -0.10251854 0.24995905 0.010450069 0.03663708 0.462003 0.12839319 0.06531659
-0.13006201 0.043074362 0.011235967 -0.100316375 -0.14034723 0.16839208 -0.13442737 -0.039091505
0.09877413 0.21279238 0.05417073 0.3590613 -0.19757238 0.19558817 0.27334106 0.13160029
-0.046537355 -0.07519294 0.16020867 0.08686774 0.067764744 0.20973969 0.24593276 -0.11039861
-0.0019079046 0.4680044 0.010626122 0.09905545 -0.33633992 0.42154878 -0.19088279 0.2318351
0.22829764 0.2861685 0.17840359 -0.20911671 0.08750608 -0.3431645 0.23159075 0.18628408
00000000: 9efa aebd d7c6 b2be 985f 163e 24e9 53bd
00000010: 2cb2 b8bd ffea c43e 6cd0 99be d77b 9cbd
00000020: aa87 1d3c d5fc 67bd 044a 4d3d e20d 7e3d
00000030: ee0f 573e 56b1 20be c11d 62be 211c d53e
00000040: 64c2 5c3e 3861 92bd 8bb4 803e b423 13be
00000050: 3b18 5c3e b1b4 b73e d0a6 35be 54c7 80be
00000060: 7f31 4f3e 2c61 0a3b db85 59be ec28 7f3e
00000070: 035e e63d f487 963e 4c61 a53e 1fde b83d
00000080: bb6c 6fbd d6d0 8bbb 52a6 e5bd f29c 32bd
00000090: 035e 593e aa24 763e 49e2 923d 87c3 a3be
000000a0: 5e6a 4e3e 43ec 253e 36d8 2d3e cca2 b9be
000000b0: 04b5 273e c76e 23bd 18bb 8fbe 21b8 9dbd
000000c0: bdc3 973e f0c8 813e 37ce a4be 483d c93d
000000d0: 43a9 643e 5293 01be 574c b9be 002a 703e
000000e0: 96f2 9d3c 4c46 04bd 2840 76bd 0f96 c33d
000000f0: 3f2f d13e 384e 333e 136f ab3e 234e 3f3e
00000100: 6ad4 cdbd fcfc 8bbe 7540 65be 0a0f 08be
00000110: 5de8 47be 7036 183e 9f83 b43e 402d 6f3b
00000120: e014 15be eff0 afbe 1a57 9e3e 4ffa a23e
00000130: eee1 853e a59a 753b 0cf6 5b3e 97af d6bc
00000140: c3e0 d93e 3ef5 d1bd 44f5 7f3e c436 2b3c
00000150: c310 163d a88b ec3e 8179 033e b4c4 853d
00000160: fa2e 05be be6e 303d 1017 383c ac72 cdbd
00000170: 2fb7 0fbe f96e 2c3e 54a7 09be 6a1e 20bd
00000180: 174a ca3d 3fe6 593e 21e2 5d3d e2d6 b73e
00000190: 6a50 4abe 4448 483e 5cf3 8b3e 3ac2 063e
000001a0: f49d 3ebd c2fe 99bd be0d 243e b7e7 b13d
000001b0: 3ec8 8a3d 00c6 563e ccd5 7b3e ab18 e2bd
000001c0: a812 faba 469e ef3e 3019 2e3c 95dd ca3d
000001d0: bf34 acbe 3ed5 d73e c776 43be 2e66 6d3e
000001e0: dbc6 693e ad84 923e 6eaf 363e b122 56be
000001f0: 6336 b33d 42b3 afbe 2026 6d3e 41c1 3e3e

bn1.running_var f4 [128]
0.1427592 0.10549571 0.106493115 0.10783725 0.11261893 0.121752776 0.104488745 0.1022799
0.09855599 0.08815125 0.098864004 0.115332894 0.08990413 0.1164943 0.09584964 0.12962592
0.112628214 0.12234571 0.095078945 0.14890505 0.089078866 0.15721913 0.11165522 0.08917245
0.13081563 0.14277646 0.16547488 0.14485882 0.10139754 0.13126703 0.10189419 0.1389788
0.09115517 0.07178766 0.107292466 0.15269408 0.0882757 0.11439739 0.10996945 0.14725077
0.094205186 0.14189324 0.23240544 0.091578715 0.12644306 0.13631131 0.087505184 0.12020687
0.07901566 0.12621737 0.09560894 0.09261759 0.10285747 0.119733326 0.10468412 0.14582665
0.11079528 0.0928101 0.077659726 0.105577946 0.11598939 0.108179815 0.12098606 0.08581207
0.09537592 0.082479656 0.11769405 0.10591119 0.116012625 0.09773369 0.11625398 0.11160057
0.14080167 0.10051699 0.13009664 0.10264573 0.09740629 0.095560126 0.105428256 0.12235196
0.085498326 0.12509146 0.07644289 0.12283692 0.10014389 0.09239611 0.15045495 0.15899698
0.09256483 0.14206818 0.086022526 0.1114309 0.11707107 0.11301273 0.10162121 0.104305506
0.13668917 0.112132825 0.077650845 0.14370392 0.09178131 0.09143039 0.13309999 0.10703438
0.08521387 0.08687165 0.12605949 0.106630936 0.14219788 0.099778384 0.11618031 0.15456796
0.12118596 0.12721565 0.14351505 0.12152592 0.117390625 0.13553654 0.094471715 0.10211298
0.114727445 0.10651121 0.17932995 0.09729838 0.14961581 0.10258844 0.12156466 0.08558886
00000000: 782f 123e 230e d83d 1019 da3d c7d9 dc3d
00000010: c1a4 e63d 8559 f93d 32fe d53d 2078 d13d
00000020: b9d7 c93d a488 b43d 3679 ca3d a733 ec3d
00000030: a81f b83d 9094 ee3d d14c c43d a8bc 043e
00000040: 9fa9 e63d 6390 fa3d c0b8 c23d 917a 183e
00000050: fb6e b63d 0dfe 203e 7eab e43d 0ca0 b63d
00000060: 88f4 053e fe33 123e 3f72 293e df55 143e
00000070: 83a9 cf3d dd6a 063e e7ad d03d 7550 0e3e
00000080: 90af ba3d 6905 933d 27bc db3d d65b 1c3e
00000090: e4c9 b43d 2e49 ea3d aa37 e13d e8c8 163e
000000a0: a6ee c03d 764c 113e b1fb 6d3e 9f8d bb3d
000000b0: 4a7a 013e 3195 0b3e eb35 b33d 052f f63d
000000c0: f6d2 a13d 203f 013e 9fce c33d 4bae bd3d
000000d0: f0a6 d23d bf36 f53d a164 d63d 9553 153e
000000e0: a3e8 e23d 3913 be3d 100c 9f3d 4039 d83d
000000f0: d88b ed3d 618d dd3d 8ac7 f73d 3dbe af3d
00000100: 7354 c33d 18eb a83d 9409 f13d f7e7 d83d
00000110: 0798 ed3d 9a28 c83d 9116 ee3d d78e e43d
00000120: 502e 103e dadb cd3d 0e38 053e ed37 d23d
00000130: f37c c73d 07b5 c33d c5ea d73d aa93 fa3d
00000140: bf19 af3d fa17 003e 178e 9c3d ec91 fb3d
00000150: 3d18 cd3d 2c3a bd3d dd10 1a3e 1bd0 223e
00000160: a192 bd3d 527a 113e 942c b03d e235 e43d
00000170: f5c2 ef3d 3873 e73d c81e d03d 209e d53d
00000180: 3ff8 0b3e e5a5 e53d 6807 9f3d 1f27 133e
00000190: d7f7 bb3d db3f bb3d 5d4b 083e d734 db3d
000001a0: 9c84 ae3d c3e9 b13d bd15 013e 5261 da3d
000001b0: 529c 113e 9c58 cc3d f1ef ed3d 1047 1e3e
000001c0: 5830 f83d d244 023e 9cf5 123e 95e2 f83d
000001d0: 7f6a f03d 17ca 0a3e 637a c13d 9c20 d13d
000001e0: 39f6 ea3d 8d22 da3d 45a2 373e 6044 c73d
000001f0: e334 193e e319 d23d e4f6 f83d 3649 af3d

layer2.weight f4 [128, 128]
0.013732247 -0.061352197 -0.010107428 0.006498461 0.09159638 -0.075900204 -0.114772506 0.07783987
-0.032089867 0.08526059 0.17253813 -0.035143804 0.11105957 0.063512474 -0.06691443 -0.042206053
0.034452997 0.019251022 -0.043115858 -0.013024492 0.10403174 0.044050876 0.053564236 0.06671007
-0.035028577 0.0486216 0.025951048 0.027697489 -0.11491158 0.064965256 -0.08501712 0.05336402
0.14373538 0.12548095 -0.017875385 0.029291056 0.020751614 0.018511374 -0.054015826 0.02319231
0.086299494 0.10163754 -0.021812303 0.10532985 0.063155405 -0.07329588 0.024226496 -0.07770477
0.051295917 0.037261546 0.10430297 0.09676405 -0.00040293974 0.08985094 -0.052104056 0.04107334
-0.07935721 0.024840645 0.14748144 -0.07860283 0.09916303 -0.035259522 0.01314654 -0.07948917
-0.015674977 -0.058026098 -0.026454922 0.057731137 0.1451366 0.047446724 -0.09895143 -0.0518635
-0.08723176 -0.08124428 0.13365112 0.07722005 -0.07615914 0.06332461 -0.009417798 0.017498149
0.00955197 0.085195996 -0.0026396208 -0.08190588 0.13177235 0.041300967 -0.029286727 0.057312198
0.0027654194 0.029601825 0.06876019 -0.016192896 0.02104191 -0.018646887 0.14270432 0.05102433
0.028234186 -0.16727826 0.14027599 0.08311543 0.019178683 -0.081840575 -0.065918885 -0.08769761
-0.026691068 -0.13892232 0.0929992 0.11649309 -0.08096102 -0.02117609 0.06730908 -0.011865908
0.06749744 -0.008750653 -0.0069574364 -0.06770586 0.010373076 0.046831813 -0.04063862 -0.0467869
-0.044655878 -0.06831929 0.033426095 -0.047608644 0.0042306655 -0.061560873 0.09262368 0.06777615
0.005943489 -0.012235736 0.13465598 -0.042028435 0.012902698 -0.11542488 -0.038177494 0.098108426
-0.0040199286 -0.024560703 0.04147182 -0.027765255 0.05816689 0.005995654 -0.035602342 -0.049815007
0.036392488 0.059925646 -0.035784677 -0.07998253 0.011071346 0.08287992 -0.038415268 0.032153796
0.102012455 -0.033819303 -0.15706009 -0.05614104 -0.00046816363 0.051788904 0.033520535 0.12499837
-0.028391907 0.052263085 -0.122068614 -0.052914135 -0.06735894 0.06284441 -0.046547018 -0.058921188
0.0750876 0.04816975 0.028634515 -0.010886697 -0.04559748 0.016043242 -0.009035275 -0.035423324
-0.005454436 0.0099066775 -0.05534938 -0.1286754 0.12616003 -0.06688939 -0.0061502876 0.11133065
-0.034816835 -0.0600669 -0.0036293603 -0.019234028 0.0046669925 -0.14258535 0.010589213 -0.10366978
-0.09861706 -0.00603004 -0.08752254 0.008136233 0.08840492 0.05043997 -0.03738147 0.009579627
0.07649547 -0.03392364 -0.022741428 0.07225963 0.03593174 0.025622545 -0.086573675 -0.02264647
-0.011795234 -0.009139884 -0.109318644 0.05609254 0.0019004699 -0.057762656 0.016911162 0.069638826
-0.0018277551 0.13704313 -0.03535363 -0.09510523 0.05312259 0.06734667 -0.053626824 -0.036860015
0.06325067 -0.094616756 -0.019467419 -0.09085238 0.046368152 0.00041504798 -0.038062796 -0.08841484
0.0015135988 0.040050525 0.027871672 0.16083206 -0.095181644 0.07680556 0.06001444 -0.029870942
0.03558738 -0.045329984 -0.027608722 0.047252316 0.05593908 0.11071045 -0.038062192 -0.0031285677
-0.03966599 0.11548898 0.1039439 -0.004045527 -0.052710433 -0.019805152 -0.03276802 -0.02360784
00000000: 38fd 603c 714c 7bbd a099 25bc 0bf1 d43b
00000010: e296 bb3d 9171 9bbd d90d ebbd 826a 9f3d
00000020: aa70 03bd 1b9d ae3d d6ad 303e f3f2 0fbd
00000030: 3373 e33d d412 823d 6f0a 89bd 41e0 2cbd
00000040: 961e 0d3d 52b4 9d3c 419a 30bd ae64 55bc
00000050: 980e d53d b16e 343d 2c66 5b3d 4a9f 883d
00000060: 207a 0fbd 7127 473d 4b97 d43c d8e5 e23c
00000070: c356 ebbd 810c 853d 751d aebd 3b94 5a3d
00000080: 5e2f 133e 147e 003e 666f 92bc ccf3 ef3c
00000090: 4aff a93c 2aa5 973c b33f 5dbd cdfd bd3c
000000a0: cabd b03d 5827 d03d b7af b2bc 2db7 d73d
000000b0: 9f57 813d 261c 96bd a576 c63c ae23 9fbd
000000c0: ab1b 523d 909f 183d cc9c d53d 3b2c c63d
000000d0: a841 d3b9 c503 b83d 106b 55bd 853c 283d
000000e0: 0886 a2bd 9c7e cb3c 6005 173e 85fa a0bd
000000f0: fd15 cb3d 4a6c 10bd 9664 573c 38cb a2bd
00000100: cf68 80bc c6ac 6dbd feb7 d8bc 7c77 6c3d
00000110: b09e 143e 7f57 423d 0ca7 cabd d26e 54bd
00000120: 91a6 b2bd 6763 a6bd d7db 083e 8c25 9e3d
00000130: 53f9 9bbd 55b0 813d 1c4d 1abc 4758 8f3c
00000140: de7f 1c3c 3d7b ae3d 7dfd 2cbb 45be a7bd
00000150: 55ef 063e 342b 293d b8ea efbc 32c0 6a3d
00000160: 0a3c 353b 877f f23c 24d2 8c3d f7a6 84bc
00000170: 1560 ac3c 5bc1 98bc 1521 123e e3fe 503d
00000180: 614b e73c fe4a 2bbe 82a4 0f3e 6c38 aa3d
00000190: 9d1c 9d3c 089c a7bd 7b00 87bd ce9a b3bd
000001a0: 3aa7 dabc a741 0ebe 5d76 be3d ee93 ee3d
000001b0: e4ce a5bd 7b79 adbc 58d9 893d 3a69 42bc
000001c0: 193c 8a3d e65e 0fbc 35fb e3bb 5fa9 8abd
000001d0: d6f3 293c b7d2 3f3d ae74 26bd 9fa3 3fbd
000001e0: 15e9 36bd fcea 8bbd cde9 083d 4801 43bd
000001f0: 65a1 8a3b 4127 7cbd 7cb1 bd3d 39ce 8a3d
00000200: 99c1 c23b 6578 48bc 42e3 093e 0226 2cbd
00000210: d665 533c e163 ecbd 0160 1cbd 12ed c83d
00000220: 9bb9 83bb 8733 c9bc 5bde 293d f673 e3bc
00000230: 6840 6e3d 3177 c43b c3d3 11bd d20a 4cbd
00000240: 4a10 153d 9874 753d f492 12bd e1cd a3bd
00000250: 9764 353c f3bc a93d 5459 1dbd b3b3 033d
00000260: e8eb d03d 1c86 0abd 5cd4 20be 26f4 65bd
00000270: dc73 f5b9 9a20 543d d44c 093d 25ff ff3d
00000280: 2596 e8bc d111 563d 1cff f9bd 7ebc 58bd
00000290: 7cf3 89bd 92b4 803d 16a8 3ebd 5857 71bd
000002a0: 87c7 993d a54d 453d ee92 ea3c 1e5e 32bc
000002b0: 6cc4 3abd 1e6d 833c b108 14bc 0c18 11bd
000002c0: 20bb b2bb 9e4f 223c 08b6 62bd 7cc3 03be
000002d0: 1830 013e 4efd 88bd 5a88 c9bb 5301 e43d
000002e0: 199c 0ebd b608 76bd 90da 6dbb ae90 9dbc
000002f0: 92ed 983b e501 12be 617e 2d3c d250 d4bd
00000300: bef7 c9bd a497 c5bb 043f b3bd d64d 053c
00000310: a40d b53d 249a 4e3d 501d 19bd def3 1c3c
00000320: a8a9 9c3d 84f3 0abd 3b4c babc dbfc 933d
00000330: 292d 133d 5fe6 d13c 8a4d b1bd 1785 b9bc
00000340: cc40 41bc 74bf 15bc 74e2 dfbd 4bc1 653d
00000350: 3019 f93a 8998 6cbd 4789 8a3c cd9e 8e3d
00000360: 4991 efba 0955 0c3e f8ce 10bd 88c6 c2bd
00000370: 1397 593d 0ded 893d cda7 5bbd 87fa 16bd
00000380: 9189 813d 6ec6 c1bd 237a 9fbc d010 babd
00000390: 88ec 3d3d cc9a d939 bce7 1bbd d712 b5bd
000003a0: f363 c63a 050c 243d 2253 e43c 29b1 243e
000003b0: 98ee c2bd 3c4c 9d3d b4d1 753d e8b3 f4bc
000003c0: 13c4 113d efab 39bd b02b e2bc a58b 413d
000003d0: 6020 653d 29bc e23d 1ae7 1bbd a808 4dbb
000003e0: ce78 22bd 7d85 ec3d 8ae0 d43d 5790 84bb
000003f0: e5e6 57bd 6a3e a2bc c237 06bd 3b65 c1bc

layer2.bias f4 [128]
0.081997715 0.0033675903 0.004811335 0.024210801 0.061125286 -0.010625761 0.086151116 0.073760554
0.048956227 -0.07943971 0.043386858 -0.02273664 -0.08365425 -0.024470365 0.041864403 0.001909213
0.042877458 -0.018434959 0.029133564 0.07695486 -0.002183635 0.05586561 0.079106465 0.052922033
-0.048847448 -0.076676115 -0.061292216 0.060122114 0.0073324065 -0.007154173 -0.06097279 0.0561382
-0.07370262 -0.0033157307 0.041818034 -0.045786876 -0.0032828234 0.066549174 -0.008874541 -0.077954255
-0.045092076 -0.0686927 0.05971446 0.091413364 0.036714677 0.083820336 -0.014483279 -0.012010227
-0.03812566 -0.06450734 -0.07634112 0.032219216 0.07634945 -0.011494959 0.009649374 0.058990244
-0.08604712 -0.018339548 -0.0038326685 0.08434372 -0.03267131 0.07720297 -0.056822184 -0.065930344
-0.04562803 0.043214824 0.069727555 -0.07690479 0.07462495 -0.012467547 0.006571993 -0.08330587
-0.042548776 0.06238303 0.0029653807 -0.0061656493 0.05698816 0.019494452 0.08447506 2.2917491e-05
-0.05942842 -0.049748454 -0.077030525 -0.027778385 -4.6390698e-05 -4.287489e-05 -0.049025733 0.036005117
0.06117338 -0.008197648 0.0028341643 0.056328177 -0.052251097 -0.03953108 -0.075623944 -0.004533698
-0.06503428 -0.029814037 0.06856093 -0.05862283 -0.059019517 -0.044180598 -0.0026465289 0.08689422
-0.059090402 -0.08205566 0.07564277 -0.059562486 -0.03338052 0.022211364 0.03657625 -0.032755487
0.048439894 -0.077343136 0.0068255127 -0.015850572 -0.07401391 0.06330638 -0.0030901667 -0.07783317
-0.013315669 -0.026090218 0.041474685 0.059481524 0.075308174 0.024039468 -0.07611592 -0.074681275
00000000: 6bee a73d cab2 5c3b 67a8 9d3b bb55 c63c
00000010: 825e 7a3d ac17 2ebc ff6f b03d c60f 973d
00000020: 5386 483d 49b1 a2bd 6bb6 313d 3142 babc
00000030: eb52 abbd 1376 c8bc 027a 2b3d 8f3e fa3a
00000040: 46a0 2f3d e904 97bc 83a9 ee3c 829a 9d3d
00000050: 511b 0fbb 56d3 643d 9202 a23d c6c4 583d
00000060: 4314 48bd 5e08 9dbd 8c0d 7bbd 9b42 763d
00000070: af44 f03b 8e6d eabb 9bbe 79bd 2bf1 653d
00000080: 66f1 96bd bb4c 59bb 6349 2b3d 058b 3bbd
00000090: a324 57bb ef4a 883d 8666 11bc 7ba6 9fbd
000000a0: 78b2 38bd c2ae 8cbd 2697 743d ee36 bb3d
000000b0: 2162 163d ffa9 ab3d 464b 6dbc 8bc6 44bc
000000c0: a729 1cbd 6d1c 84bd bc58 9cbd 4cf8 033d
000000d0: 1a5d 9c3d 5a55 3cbc 6818 1e3c c19f 713d
000000e0: 7939 b0bd d23c 96bc 822d 7bbb 66bc ac3d
000000f0: 5ad2 05bd 971c 9e3d 61be 68bd 7d06 87bd
00000100: 75e4 3abd 0702 313d 52cd 8e3d 4280 9dbd
00000110: f7d4 983d af44 4cbc e059 d73b 459c aabd
00000120: a047 2ebd 5985 7f3d d556 423b 3709 cabb
00000130: 6b6c 693d d4b2 9f3c 4301 ad3d f03e c037
00000140: 376b 73bd 09c5 4bbd 2ec2 9dbd 7f8f e3bc
00000150: a293 42b8 90d4 33b8 35cf 48bd 1a7a 133d
00000160: f090 7a3d 6e4f 06bc 63bd 393b 60b8 663d
00000170: 3f05 56bd 57eb 21bd bae0 9abd 6a8f 94bb
00000180: b130 85bd 913c f4bc ac69 8c3d 7e1e 70bd
00000190: 73be 71bd b7f6 34bd 6371 2dbb 99f5 b13d
000001a0: c708 72bd cc0c a8bd 99ea 9a3d cbf7 73bd
000001b0: 03ba 08bd 9bf4 b53c fad0 153d 9e2a 06bd
000001c0: e968 463d 1466 9ebd 8da8 df3b 0fd9 81bc
000001d0: 9b94 97bd c6a6 813d 6584 4abb ff66 9fbd
000001e0: f729 5abc 27bb d5bc 5ce1 293d e6a2 733d
000001f0: 2c3b 9a3d 6bee c43c aae2 9bbd 7ff2 98bd

bn2.weight f4 [128]
0.9378765 0.7039627 1.0115558 0.9995285 1.0384308 1.030084 1.0335639 1.046133
0.90973735 1.0804212 1.0184541 0.9934336 0.9081513 0.9631093 1.1462675 0.9677894
1.0534368 0.95585096 0.98748666 1.0296997 0.9529067 1.0163267 1.0151582 1.053424
1.02305 0.75693625 1.0078229 0.9812571 0.93291134 1.0495532 0.9720391 0.9501415
1.0646647 1.0860952 0.9320111 1.0055317 1.0067422 0.97057706 1.0409497 0.96732134
0.9747505 1.0158376 0.9967442 0.9884327 0.96093833 1.0016829 0.984785 1.1228487
0.9902844 1.0283133 0.78171086 1.0514419 1.0438641 1.0289967 1.0591445 0.9688668
1.0086647 1.0121002 0.8613442 1.0465032 0.91475177 0.9189126 0.9699285 0.8966634
1.0239811 1.0330501 1.0722535 1.0190706 0.96962875 1.0275016 1.0260025 0.980018
1.0084139 1.1365463 1.1023222 1.0085629 0.794332 0.97999984 0.9223612 0.9664767
1.009721 1.116675 0.96958643 1.0091292 0.9516955 1.1586542 0.9579955 0.96345496
1.0016143 1.0891088 1.0903109 1.0229874 1.0094812 1.003125 0.9891406 0.9249732
1.1095284 0.9993795 1.0461825 1.054011 0.9844536 0.9723974 0.92411125 0.9652667
0.9134839 1.0586982 1.0186973 1.019735 0.87261236 1.0726762 0.99094576 0.91834754
0.941885 0.9777554 1.0742059 0.90163153 1.0188574 1.1109887 1.0053059 1.0085454
1.0052336 1.0082613 0.90018624 1.0529032 0.9094733 1.0978254 0.9826619 0.96076876
00000000: ad18 703f e636 343f a97a 813f 1ae1 7f3f
00000010: 4deb 843f cbd9 833f d24b 843f b0e7 853f
00000020: 8ce4 683f 3e4b 8a3f b45c 823f aa51 7e3f
00000030: 9b7c 683f 558e 763f e5b8 923f 0cc1 773f
00000040: 04d7 863f a6b2 743f edcb 7c3f 33cd 833f
00000050: b2f1 733f fe16 823f b4f0 813f 99d6 863f
00000060: 4df3 823f 93c6 413f 5700 813f aa33 7b3f
00000070: 47d3 6e3f c257 863f 8ed7 783f 793c 733f
00000080: ef46 883f 2b05 8b3f 4898 6e3f 43b5 803f
00000090: eedc 803f bd77 783f d73d 853f 5fa2 773f
000000a0: 4089 793f f706 823f a12a 7f3f ed09 7d3f
000000b0: 0e00 763f 2537 803f df1a 7c3f 82b9 8f3f
000000c0: 4783 7d3f c59f 833f 341e 483f a695 863f
000000d0: 579d 853f 2ab6 833f 0c92 873f a807 783f
000000e0: ed1b 813f 808c 813f 0e81 5c3f d1f3 853f
000000f0: 2c2d 6a3f db3d 6b3f 3c4d 783f bc8b 653f
00000100: d011 833f fc3a 843f 9a3f 893f e870 823f
00000110: 9739 783f 2c85 833f 0d54 833f 76e2 7a3f
00000120: b513 813f 597a 913f e518 8d3f 9718 813f
00000130: 5859 4b3f 45e1 7a3f dd1f 6c3f 046b 773f
00000140: 8a3e 813f 35ef 8e3f d136 783f 252b 813f
00000150: 51a2 733f c84e 943f 313f 753f fca4 763f
00000160: e634 803f eb67 8b3f 4f8f 8b3f 40f1 823f
00000170: ae36 813f 6666 803f 5238 7d3f 0bcb 6c3f
00000180: 0705 8e3f 56d7 7f3f 4fe9 853f d5e9 863f
00000190: 2705 7c3f 09ef 783f 8e92 6c3f b81b 773f
000001a0: 15da 693f 6c83 873f ac64 823f ad86 823f
000001b0: 8663 5f3f 744d 893f 9fae 7d3f d318 6b3f
000001c0: 601f 713f 2e4e 7a3f 947f 893f 53d1 663f
000001d0: eb69 823f e134 8e3f ddad 803f 0418 813f
000001e0: 7fab 803f b50e 813f 9b72 663f 88c5 863f
000001f0: 3ed3 683f 8b85 8c3f bb8f 7b3f f1f4 753f

bn2.bias f4 [128]
-0.014267371 -0.24930708 -0.09491933 -0.03031715 0.038361557 -0.05401831 0.08430143 0.06426168
-0.031311437 0.055118144 -0.019540375 0.02190778 -0.14545418 -0.027785664 -0.14925319 0.0038237653
-0.11589625 -0.035596397 0.022750383 0.068662435 -0.102810204 -0.04613262 0.064958416 0.09758128
-0.12352229 -0.19951798 0.063455485 -0.0479058 -0.07626822 -0.09232183 0.046590593 -0.075577214
-0.13845776 -0.1325268 -0.05539744 -0.007557915 -0.039754443 0.010822712 0.03559412 -0.059122175
-0.050557666 0.0027310234 -0.05324343 -0.08762221 -0.065983504 0.023672754 -0.0071806875 -0.08741879
-0.006005697 -0.0035633575 -0.1259596 0.036186732 -0.08555873 0.050360013 0.026446208 0.05415154
-0.105076805 -0.081468545 -0.058671746 -0.09736109 -0.03368964 -0.06768329 -0.061959997 -0.11317133
0.019438436 0.09878961 -0.08808989 0.008087331 -0.028768916 0.035184428 -0.0831742 -0.014229664
0.047187034 -0.1171025 -0.122240484 0.07272085 -0.15580693 -0.06891196 -0.07741805 0.057755604
0.0027001398 -0.095754445 -0.06767977 -0.005469405 -0.0062856968 -0.15995838 -0.07365279 -0.023940753
0.05646329 -0.16019997 -0.11878255 0.05729042 -0.02608558 0.01885134 0.004843987 -0.081387155
-0.104508445 0.04581347 0.06864857 -0.0987239 0.004796916 -0.036679864 0.0023430672 0.009530898
-0.038445808 -0.13414632 0.039410744 0.057331115 -0.12913944 -0.108114235 0.008543249 -0.10172224
-0.15780997 -0.062465128 -0.11837212 -0.15719631 -0.009783635 -0.15644263 0.06243434 0.051836394
-0.010921799 0.089667894 -0.039301742 0.059633754 -0.12590455 -0.117417164 0.015387236 -0.05337975
00000000: b1c1 69bc 5b4a 7fbe 1165 c2bd ac5b f8bc
00000010: 0221 1d3d 4e42 5dbd 3aa6 ac3d a19b 833d
00000020: 6c40 00bd 90c3 613d 2313 a0bc f277 b33c
00000030: f1f1 14be c39e e3bc d4d5 18be 2398 7a3b
00000040: 035b edbd 87cd 11bd 035f ba3c e49e 8c3d
00000050: 288e d2bd 8ff5 3cbd eb08 853d b2d8 c73d
00000060: 41f9 fcbd 714e 4cbe f3f4 813d df38 44bd
00000070: 8332 9cbd 3a13 bdbd c7d5 3e3d 3ac8 9abd
00000080: dfc7 0dbe 1bb5 07be 6de8 62bd 63a8 f7bb
00000090: 8ed5 22bd bf51 313c 24cb 113d 182a 72bd
000000a0: 8e15 4fbd f8fa 323b c815 5abd 4673 b3bd
000000b0: 5c22 87bd 5ded c13c f94b ebbb 9f08 b3bd
000000c0: 70cb c4bb 3887 69bb 8efb 00be 8a38 143d
000000d0: 6a39 afbd 4d46 4e3d b8a5 d83c 01ce 5d3d
000000e0: 8232 d7bd fbd8 a6bd c951 70bd 4065 c7bd
000000f0: 26fe 09bd 899d 8abd c4c9 7dbd 5fc6 e7bd
00000100: 5b3d 9f3c 3552 ca3d 7968 b4bd ba80 043c
00000110: caac ebbc 8c1d 103d 3c57 aabd 8923 69bc
00000120: 3147 413d 6fd3 efbd 3859 fabd abee 943d
00000130: da8b 1fbe b721 8dbd 5b8d 9ebd 2491 6c3d
00000140: d4f4 303b e81a c4bd b19b 8abd b238 b3bb
00000150: 3ff8 cdbb 21cc 23be 46d7 96bd 661f c4bc
00000160: 0d46 673d 760b 24be 4444 f3bd 5ca9 6a3d
00000170: 6db1 d5bc 206e 9a3c 4fba 9e3b 4fae a6bd
00000180: 8608 d6bd e8a6 3b3d 9f97 8c3d c22f cabd
00000190: 732f 9d3b a03d 16bd 258e 193b 7c27 1c3c
000001a0: 5a79 1dbd a75d 09be 296d 213d 08d4 6a3d
000001b0: 213d 04be ff6a ddbd fcf8 0b3c c053 d0bd
000001c0: f098 21be 6fdb 7fbd 156d f2bd 12f8 20be
000001d0: 8a4b 20bc 7f32 20be 27bb 7f3d 6652 543d
000001e0: 58f1 32bc cda3 b73d ddfa 20bd 8642 743d
000001f0: 1fed 00be 6978 f0bd bf1a 7c3c baa4 5abd

bn2.running_mean f4 [128]
0.345 -0.108905695 -0.5219346 0.31754914 0.30990106 0.13059394 0.36106035 0.36064744
0.1704731 0.16210802 0.27277133 0.2466175 0.08880146 0.08118148 -0.4181477 0.21930808
-0.4657556 0.13543095 0.30854464 0.2875661 -0.49457282 0.3342584 0.29481256 0.34868428
-0.6463935 -0.26780725 0.30323792 0.0935153 0.2393059 -0.5438467 0.10918829 0.28204444
-0.62538576 -0.58980024 0.12725548 0.27548343 0.17431268 0.32139105 0.25307834 0.07894993
0.15633798 0.1537401 0.24641787 -0.29080912 -0.5805694 0.29188332 0.17057323 -0.5179242
0.2743737 0.12871213 -0.1127187 0.35375026 -0.4313549 0.31567323 0.28016546 0.24757817
-0.64137846 -0.64087266 0.12796263 -0.28984874 0.20961432 0.3243471 0.20224261 -0.08880088
0.2464522 0.3192594 -0.3654909 0.13815016 0.15791498 0.25492656 -0.6001275 0.1621552
0.15386716 -0.40168518 -0.44274428 0.25902906 0.12900086 0.24477634 0.3997866 0.28184113
0.15653798 -0.6392673 0.05200984 0.13848577 0.16411325 -0.42637378 0.27645415 0.18485495
0.35129106 -0.6308597 -0.48098823 0.24504824 0.12025058 0.23675017 0.07093798 0.18636967
-0.6216108 0.157756 0.32191676 -0.5157281 0.1722327 0.119976476 0.029728463 0.23080036
0.020648612 -0.57380974 0.30162016 0.11393409 0.098764725 -0.4994113 0.3267539 0.11619881
0.3327193 0.16183093 -0.42005932 0.16922309 0.013664706 -0.5272521 0.21527615 0.16932428
0.23545992 0.33794367 0.21603978 0.38260555 0.40081975 -0.500687 0.2612049 0.053564794
00000000: d7a3 b03e f309 dfbd 829d 05bf cd95 a23e
00000010: 5aab 9e3e 6bba 053e e7dc b83e c8a6 b83e
00000020: 8090 2e3e a5ff 253e afa8 8b3e 4c89 7c3e
00000030: 8add b53d 7a42 a63d 7517 d6be 4c92 603e
00000040: 8577 eebe 69ae 0a3e 90f9 9d3e dd3b 933e
00000050: a638 fdbe eb23 ab3e acf1 963e bf86 b23e
00000060: 0b7a 25bf 081e 89be 0042 9b3e f384 bf3d
00000070: 9b0c 753e 8a39 0bbf 1c9e df3d 2168 903e
00000080: 4819 20bf 26fd 16bf 434f 023e 2a0c 8d3e
00000090: 067f 323e 5e8d a43e 7c93 813e 80b0 a13d
000000a0: 1017 203e 0b6e 1d3e f754 7c3e efe4 94be
000000b0: 32a0 14bf bb71 953e c0aa 2e3e ae96 04bf
000000c0: b67a 8c3e 1dcd 033e 10d9 e6bd c11e b53e
000000d0: 8dda dcbe ec9f a13e d971 8f3e 2285 7d3e
000000e0: 6131 24bf 3b10 24bf a308 033e 0e67 94be
000000f0: 23a5 563e d310 a63e b018 4f3e 3cdd b5bd
00000100: f75d 7c3e f875 a33e a021 bbbe 3c77 0d3e
00000110: 77b4 213e bc85 823e f5a1 19bf 030c 263e
00000120: 5a8f 1d3e aea9 cdbe 61af e2be 759f 843e
00000130: cd18 043e a6a6 7a3e d4b0 cc3e 7b4d 903e
00000140: 7e4b 203e 06a7 23bf 4508 553d 37cf 0d3e
00000150: 4e0d 283e aa4d dabe 668b 8d3e 9e4a 3d3e
00000160: 6cdc b33e 0580 21bf 1744 f6be eded 7a3e
00000170: f045 f63d a36e 723e ef47 913d b1d7 3e3e
00000180: e321 1fbf ca8a 213e 46d2 a43e c206 04bf
00000190: c55d 303e 3ab6 f53d 1b89 f33c ee56 6c3e
000001a0: 4727 a93c 32e5 12bf f56d 9a3e 4756 e93d
000001b0: 2945 ca3d d7b2 ffbe 4a4c a73e a4f9 ed3d
000001c0: 2f5a aa3e 02b7 253e 0412 d7be d148 2d3e
000001d0: eee1 5f3c fef9 06bf 5a71 5c3e 5863 2d3e
000001e0: 681c 713e f406 ad3e 8839 5d3e e0e4 c33e
000001f0: 3f38 cd3e 062d 00bf a6bc 853e c266 5b3d

bn2.running_var f4 [128]
0.8722846 0.5888717 2.0720267 0.7168477 1.0059378 0.6586742 0.8849607 1.0076289
0.8282935 0.84743404 0.72109336 0.7964798 0.5032281 0.8006267 1.7232054 0.727715
1.7159703 0.757457 0.9132679 0.9629485 1.842246 0.8153701 0.7981792 0.95192605
1.877791 0.5579717 1.1927776 0.7362654 0.68462586 1.9903885 0.98518413 0.68411726
1.9651893 2.141813 0.9104416 0.9270877 0.70829177 1.0271189 0.8381173 0.6854943
0.6500578 0.80285573 0.74095535 1.6573855 1.630287 0.82768804 0.7667044 2.1667988
0.96408635 0.7558099 0.62821376 0.9834873 2.0168622 0.93821007 0.88254106 0.90954226
1.7188694 1.717581 0.78143996 1.8970169 0.8527201 0.74333924 0.7111154 0.42025957
0.9096188 1.010124 1.8232889 0.7925406 0.7171855 0.93961877 2.0482185 0.84210056
0.90796053 2.0273862 1.8915945 1.0696888 0.50082725 0.72570246 0.799852 0.97715837
0.72610587 2.0304723 0.59159684 0.8827691 0.7592842 2.0294485 0.7349677 0.6899256
0.93060786 2.0412798 2.0149505 0.84320503 0.8757153 0.7503153 0.87406033 0.679129
2.1073449 0.9173179 0.9047603 2.0507407 0.8658889 0.85129935 0.8184309 0.7607505
0.72969854 1.8689628 0.84567213 0.88769233 0.50061065 1.8428931 0.82496154 0.5369585
0.64047176 0.624694 1.7338899 0.60812294 0.6821256 2.1625283 0.80874705 0.8771775
0.7863504 0.97843575 0.80513203 1.0041418 0.72132945 2.0607407 0.9189911 0.6073554
00000000: 0b4e 5f3f 4cc0 163f 169c 0440 5583 373f
00000010: 92c2 803f df9e 283f c98c 623f fcf9 803f
00000020: 0b0b 543f 70f1 583f 9399 383f 1ae6 4b3f
00000030: 8fd3 003f dff5 4c3f ff91 dc3f 884b 3a3f
00000040: eaa4 db3f b4e8 413f edcb 693f cb83 763f
00000050: b8ce eb3f 18bc 503f 7955 4c3f 6db1 733f
00000060: 755b f03f 3cd7 0e3f f0ac 983f e47b 3c3f
00000070: a443 2f3f 0dc5 fe3f 0735 7c3f 4f22 2f3f
00000080: 538b fb3f 7713 0940 b312 693f 9f55 6d3f
00000090: 9c52 353f a278 833f db8e 563f 8e7c 2f3f
000000a0: 306a 263f f487 4d3f 40af 3d3f 3525 d43f
000000b0: 3fad d03f 5de3 533f bd46 443f d5ac 0a40
000000c0: 5dce 763f c27c 413f 9ed2 203f d3c5 7b3f
000000d0: 4514 0140 892e 703f 36ee 613f c3d7 683f
000000e0: ea03 dc3f b2d9 db3f 730c 483f 73d1 f23f
000000f0: dd4b 5a3f 7b4b 3e3f a90b 363f 432c d73e
00000100: c7dc 683f be4b 813f 8861 e93f f1e3 4a3f
00000110: 7899 373f db8a 703f 0316 0340 e793 573f
00000120: 1a70 683f b2c0 0140 c51f f23f 90eb 883f
00000130: 3736 003f a3c7 393f 1ac3 4c3f 0d27 7a3f
00000140: 13e2 393f 42f3 0140 e472 173f 28fd 613f
00000150: 7360 423f 7ce2 0140 d826 3c3f f79e 303f
00000160: 513c 6e3f 54a4 0240 f3f4 0040 49dc 573f
00000170: e12e 603f aa14 403f 6bc2 5f3f 66db 2d3f
00000180: bdde 0640 59d5 6a3f 5f9e 673f 563f 0340
00000190: e5aa 5d3f c1ee 593f b084 513f 8bc0 423f
000001a0: 86cd 3a3f 2c3a ef3f f87d 583f ce3f 633f
000001b0: 0528 003f ece3 eb3f ae30 533f 1d76 093f
000001c0: f5f5 233f f2eb 1f3f 1bf0 dd3f f2ad 1b3f
000001d0: c99f 2e3f dd66 0a40 0c0a 4f3f b48e 603f
000001e0: 434e 493f c47a 7a3f 221d 4e3f b887 803f
000001f0: 0ca9 383f 2de3 0340 0043 6b3f a57b 1b3f

layer3.weight f4 [128, 128]
-0.013928804 -0.044099744 0.059791215 -0.035295848 -0.039785776 -0.034405287 -0.033020623 -0.0005132741
-0.05107106 -0.01948503 -0.047395147 -0.075504616 0.021400608 -0.031097637 0.03205459 -6.522718e-05
0.027300326 -0.056307618 0.030434063 -0.05527824 0.025825387 -0.053747803 -0.089249596 0.03871032
0.16016948 -0.037546095 -0.088267244 -0.08024541 -0.05952312 0.073618576 -0.02482516 -0.052403253
0.13885458 0.043246496 -0.05250732 0.006823253 -0.009821463 -0.011133116 -0.053057157 -0.082604766
-0.029166067 -0.036517236 -0.0015117821 0.07426182 0.11231068 -0.06455446 -0.083139576 0.12784737
-0.03048259 -0.021398382 -0.06375465 0.023589222 0.1098144 -0.06754266 -0.04441022 -0.1145399
0.077380955 0.09274983 0.0024195525 0.04044315 -0.097571105 -0.062021587 -0.024520215 -0.014806257
0.023891417 -0.016684044 0.05921734 -0.038789224 0.0011301491 -0.05253152 0.08576069 -0.02316975
-0.0928984 0.06633409 0.06373882 -0.060284413 -0.017283365 0.0030903264 -0.05842965 -0.037521504
-0.099911116 0.08932348 -0.01867232 -0.012706682 -0.010592662 0.16952385 -0.042023487 0.016491335
-0.058631238 0.07685245 0.1026271 0.023042502 -0.023738671 -0.034390494 -0.073409244 -0.022497505
0.081692554 -0.07201417 -0.064137295 0.005244778 -0.06798259 -0.04592099 -0.024050297 -0.09289973
-0.03289968 0.118462555 -0.101891056 -0.030537205 -0.017531866 0.08459323 -0.052874185 0.012775176
-0.05711414 -0.03814568 0.06767119 -0.010692343 -0.02610287 0.1261301 -0.020448694 0.00031035708
-0.05040831 -0.0069680987 -0.027653208 -0.062093895 -0.059571855 0.08851402 -0.003050847 -0.047363628
0.08277856 -0.022576723 0.011079526 0.10384254 -0.10344966 -0.06355589 0.07320957 0.055901393
-0.0032605205 -0.041137546 -0.078108124 0.0036884113 0.0006869517 0.02855592 -0.0010721829 -0.09108682
-0.06005084 0.051846344 0.024347072 0.033683103 0.022012895 0.0545968 -0.009152523 0.09947898
-0.0036798366 -0.014923474 0.12843108 0.04807203 0.05842621 -0.032885835 -0.015112081 0.054589305
-0.08058345 -0.061713953 -0.024180155 -0.0053177257 0.046016473 0.046424992 0.102525525 0.14067754
0.014401218 0.08299724 -0.014582575 0.019513743 -0.010329335 -0.11009798 0.10798638 -0.02501137
0.032421693 -0.030093 -0.054388363 0.16266797 -0.052710235 0.12977856 -0.030319668 -0.06734073
-0.0293856 -0.080972485 -0.03404621 0.0323474 0.023432903 -0.055851705 0.06935394 -0.010629925
0.0055191536 0.057801645 -0.035695944 0.0019477874 0.09131234 -0.03720789 -0.016703192 0.06475855
0.0014357613 -0.06614868 -0.007995223 0.0016458642 -0.024633955 0.038054958 0.019908082 0.07086225
-0.020790026 -0.11351269 0.1331316 0.12815881 0.10042687 -0.020217272 0.10644969 0.023913428
-0.15247072 -0.104687 -0.021356847 0.042770397 -0.038030993 -0.060177695 0.04595117 -0.13034712
-0.06895255 0.020504134 0.037293117 -0.021235619 -0.07598118 0.06548856 0.010351603 -0.07016812
-0.011883391 -0.06324889 0.10038493 0.12258333 0.101407185 -0.03811578 0.096078165 0.029086314
-0.037042733 0.00358846 -0.035008684 0.07893813 0.009898977 -0.039975595 0.061734375 0.12174285
-0.10495808 -0.005081251 0.06195878 0.054442674 -0.019310486 -0.011136671 0.0599022 -0.012363324
00000000: a335 64bc efa1 34bd a2e7 743d 6192 10bd
00000010: 69f6 22bd 8fec 0cbd a240 07bd 3e8d 06ba
00000020: e32f 51bd 129f 9fbc 6a21 42bd 2aa2 9abd
00000030: 5450 af3c 79c0 febc ac4b 033d 93ca 88b8
00000040: efa4 df3c d1a2 66bd db50 f93c 706b 62bd
00000050: c38f d33c a826 5cbd 7ec8 b6bd b68e 1e3d
00000060: 7803 243e efc9 19bd 75c5 b4bd b557 a4bd
00000070: 84ce 73bd 56c5 963d 225e cbbc cba4 56bd
00000080: e52f 0e3e 3d23 313d ea11 57bd 9895 df3b
00000090: 34ea 20bc ac67 36bc 7652 59bd b02c a9bd
000000a0: aded eebc 1993 15bd fd26 c6ba 9516 983d
000000b0: 2403 e63d 2135 84bd 1545 aabd 6cea 023e
000000c0: a0b6 f9bc a94b afbc cc91 82bd 2f3e c13c
000000d0: 5fe6 e03d ce53 8abd 7ee7 35bd e593 eabd
000000e0: e879 9e3d 9ff3 bd3d 5b91 1e3b b7a7 253d
000000f0: 5cd3 c7bd 590a 7ebd 9ede c8bc f195 72bc
00000100: efb7 c33c faac 88bc e28d 723d 73e1 1ebd
00000110: 8321 943a 4b2b 57bd 4da3 af3d 7dce bdbc
00000120: 8441 bebd 2bda 873d 8089 823d caec 76bd
00000130: d895 8dbc 1387 4a3b ee53 6fbd 26b0 19bd
00000140: 339e ccbd 3bef b63d b1f6 98bc b02f 50bc
00000150: d88c 2dbc a997 2d3e d220 2cbd d618 873c
00000160: 4f27 70bd d164 9d3d 282e d23d a1c3 bc3c
00000170: 9a77 c2bc 0cdd 0cbd 9657 96bd b04c b8bc
00000180: 6d4e a73d 2a7c 93bd 6a5a 83bd 63dc ab3b
00000190: 753a 8bbd a617 3cbd 2105 c5bc 3742 bebd
000001a0: d1c1 06bd 7f9c f23d 42ac d0bd 2929 fabc
000001b0: fd9e 8fbc 373f ad3d 9a92 58bd f94e 513c
000001c0: 84f0 69bd a53e 1cbd 3197 8a3d f02e 2fbc
000001d0: b0d5 d5bc 4028 013e 0584 a7bc 6cb7 a239
000001e0: f278 4ebd a654 e4bb fb88 e2bc 2b56 7ebd
000001f0: 9e01 74bd d746 b53d b8f0 47bb 5d00 42bd
00000200: ce87 a93d d2f2 b8bc e686 353c 66ab d43d
00000210: 6add d3bd 9729 82bd e6ee 953d dcf8 643d
00000220: 75ae 55bb d87f 28bd 27f7 9fbd 46b9 713b
00000230: 8c14 343a 1bee e93c 7d88 8cba ba8b babd
00000240: dff7 75bd d55c 543d 8373 c73c 4bf7 093d
00000250: 6354 b43c e5a0 5f3d 77f4 15bc a3bb cb3d
00000260: 6a29 71bb 9681 74bc 7083 033e 2de7 443d
00000270: 5250 6f3d 4cb3 06bd a998 77bc 0999 5f3d
00000280: f008 a5bd c5c7 7cbd 7615 c6bc 5140 aebb
00000290: c57b 3c3d 2228 3e3d e7f8 d13d c60d 103e
000002a0: 16f3 6b3c 75fa a93d c1eb 6ebc 49db 9f3c
000002b0: 5f3c 29bc 0d7b e1bd f727 dd3d a5e4 ccbc
000002c0: 9ccc 043d 9885 f6bc 55c6 5ebd 6f92 263e
000002d0: b0e6 57bd ace4 043e f460 f8bc f0e9 89bd
000002e0: 12ba f0bc e7d4 a5bd 0a74 0bbd b57e 043d
000002f0: 5cf6 bf3c c2c4 64bd 7009 8e3d 2329 2ebc
00000300: 04da b43b 6bc1 6c3d e935 12bd e64c ff3a
00000310: f701 bb3d 4d67 18bd 22d5 88bc 21a0 843d
00000320: 2830 bc3a f678 87bd 65fe 02bc 0aba d73a
00000330: 26cd c9bc 84df 1b3d 4616 a33c 3a20 913d
00000340: d84f aabc 5779 e8bd a653 083e 103c 033e
00000350: 9aac cd3d b19e a5bc 4c02 da3d 18e6 c33c
00000360: 4921 1cbe 2366 d6bd 8ef4 aebc 0330 2f3d
00000370: 63c6 1bbd e37c 76bd 4b37 3c3d b779 05be
00000380: ff36 8dbd 49f8 a73c abc0 183d 52f6 adbc
00000390: 059c 9bbd de1e 863d c599 293c 4eb4 8fbd
000003a0: 8eb2 42bc a288 81bd 9d96 cd3d f80c fb3d
000003b0: 92ae cf3d 4b1f 1cbd a1c4 c43d 6c46 ee3c
000003c0: 1fba 17bd 5e2c 6b3b 4465 0fbd 50aa a13d
000003d0: 522f 223c 73bd 23bd 2fdd 7c3d 5154 f93d
000003e0: 43f4 d6bd 9f80 a6bb 7dc8 7d3d 48ff 5e3d
000003f0: 0631 9ebc 9576 36bc 025c 753d 8a8f 4abc
